…
140 elements to be replaced in train. Using 359 good values
Replacing label 9
102 elements to be replaced in train. Using 486 good values
Replacing label 10
560 elements to be replaced in train. Using 802 good values
Replacing label 11
308 elements to be replaced in train. Using 876 good values
nan data removed
__________________________________________________________________________________________________
Layer (type)                    Output Shape         Param #     Connected to                     
==================================================================================================
input_accel (InputLayer)        (None, 1000, 6)      0                                            
__________________________________________________________________________________________________
input_video (InputLayer)        (None, 240, 320, 5)  0                                            
__________________________________________________________________________________________________
lambda_2 (Lambda)               (None, 1000, 1)      0           input_accel[0][0]                
__________________________________________________________________________________________________
lambda_3 (Lambda)               (None, 1000, 1)      0           input_accel[0][0]                
__________________________________________________________________________________________________
lambda_4 (Lambda)               (None, 1000, 1)      0           input_accel[0][0]                
__________________________________________________________________________________________________
lambda_5 (Lambda)               (None, 1000, 1)      0           input_accel[0][0]                
__________________________________________________________________________________________________
lambda_6 (Lambda)               (None, 1000, 1)      0           input_accel[0][0]                
__________________________________________________________________________________________________
lambda_7 (Lambda)               (None, 1000, 1)      0           input_accel[0][0]                
__________________________________________________________________________________________________
lambda_1 (Lambda)               (None, 240, 320, 5,  0           input_video[0][0]                
__________________________________________________________________________________________________
conv1d_1 (Conv1D)               (None, 1000, 8)      48          lambda_2[0][0]                   
__________________________________________________________________________________________________
conv1d_3 (Conv1D)               (None, 1000, 8)      48          lambda_3[0][0]                   
__________________________________________________________________________________________________
conv1d_5 (Conv1D)               (None, 1000, 8)      48          lambda_4[0][0]                   
__________________________________________________________________________________________________
conv1d_7 (Conv1D)               (None, 1000, 8)      48          lambda_5[0][0]                   
__________________________________________________________________________________________________
conv1d_9 (Conv1D)               (None, 1000, 8)      48          lambda_6[0][0]                   
__________________________________________________________________________________________________
conv1d_11 (Conv1D)              (None, 1000, 8)      48          lambda_7[0][0]                   
__________________________________________________________________________________________________
conv3d_1 (Conv3D)               (None, 120, 160, 5,  112         lambda_1[0][0]                   
__________________________________________________________________________________________________
activation_3 (Activation)       (None, 1000, 8)      0           conv1d_1[0][0]                   
__________________________________________________________________________________________________
activation_5 (Activation)       (None, 1000, 8)      0           conv1d_3[0][0]                   
__________________________________________________________________________________________________
activation_7 (Activation)       (None, 1000, 8)      0           conv1d_5[0][0]                   
__________________________________________________________________________________________________
activation_9 (Activation)       (None, 1000, 8)      0           conv1d_7[0][0]                   
__________________________________________________________________________________________________
activation_11 (Activation)      (None, 1000, 8)      0           conv1d_9[0][0]                   
__________________________________________________________________________________________________
activation_13 (Activation)      (None, 1000, 8)      0           conv1d_11[0][0]                  
__________________________________________________________________________________________________
activation_1 (Activation)       (None, 120, 160, 5,  0           conv3d_1[0][0]                   
__________________________________________________________________________________________________
average_pooling1d_1 (AveragePoo (None, 499, 8)       0           activation_3[0][0]               
__________________________________________________________________________________________________
average_pooling1d_3 (AveragePoo (None, 499, 8)       0           activation_5[0][0]               
__________________________________________________________________________________________________
average_pooling1d_5 (AveragePoo (None, 499, 8)       0           activation_7[0][0]               
__________________________________________________________________________________________________
average_pooling1d_7 (AveragePoo (None, 499, 8)       0           activation_9[0][0]               
__________________________________________________________________________________________________
average_pooling1d_9 (AveragePoo (None, 499, 8)       0           activation_11[0][0]              
__________________________________________________________________________________________________
average_pooling1d_11 (AveragePo (None, 499, 8)       0           activation_13[0][0]              
__________________________________________________________________________________________________
max_pooling3d_1 (MaxPooling3D)  (None, 60, 80, 5, 4) 0           activation_1[0][0]               
__________________________________________________________________________________________________
conv1d_2 (Conv1D)               (None, 499, 4)       164         average_pooling1d_1[0][0]        
__________________________________________________________________________________________________
conv1d_4 (Conv1D)               (None, 499, 4)       164         average_pooling1d_3[0][0]        
__________________________________________________________________________________________________
conv1d_6 (Conv1D)               (None, 499, 4)       164         average_pooling1d_5[0][0]        
__________________________________________________________________________________________________
conv1d_8 (Conv1D)               (None, 499, 4)       164         average_pooling1d_7[0][0]        
__________________________________________________________________________________________________
conv1d_10 (Conv1D)              (None, 499, 4)       164         average_pooling1d_9[0][0]        
__________________________________________________________________________________________________
conv1d_12 (Conv1D)              (None, 499, 4)       164         average_pooling1d_11[0][0]       
__________________________________________________________________________________________________
conv3d_2 (Conv3D)               (None, 30, 40, 5, 8) 872         max_pooling3d_1[0][0]            
__________________________________________________________________________________________________
activation_4 (Activation)       (None, 499, 4)       0           conv1d_2[0][0]                   
__________________________________________________________________________________________________
activation_6 (Activation)       (None, 499, 4)       0           conv1d_4[0][0]                   
__________________________________________________________________________________________________
activation_8 (Activation)       (None, 499, 4)       0           conv1d_6[0][0]                   
__________________________________________________________________________________________________
activation_10 (Activation)      (None, 499, 4)       0           conv1d_8[0][0]                   
__________________________________________________________________________________________________
activation_12 (Activation)      (None, 499, 4)       0           conv1d_10[0][0]                  
__________________________________________________________________________________________________
activation_14 (Activation)      (None, 499, 4)       0           conv1d_12[0][0]                  
__________________________________________________________________________________________________
activation_2 (Activation)       (None, 30, 40, 5, 8) 0           conv3d_2[0][0]                   
__________________________________________________________________________________________________
average_pooling1d_2 (AveragePoo (None, 248, 4)       0           activation_4[0][0]               
__________________________________________________________________________________________________
average_pooling1d_4 (AveragePoo (None, 248, 4)       0           activation_6[0][0]               
__________________________________________________________________________________________________
average_pooling1d_6 (AveragePoo (None, 248, 4)       0           activation_8[0][0]               
__________________________________________________________________________________________________
average_pooling1d_8 (AveragePoo (None, 248, 4)       0           activation_10[0][0]              
__________________________________________________________________________________________________
average_pooling1d_10 (AveragePo (None, 248, 4)       0           activation_12[0][0]              
__________________________________________________________________________________________________
average_pooling1d_12 (AveragePo (None, 248, 4)       0           activation_14[0][0]              
__________________________________________________________________________________________________
max_pooling3d_2 (MaxPooling3D)  (None, 15, 20, 5, 8) 0           activation_2[0][0]               
__________________________________________________________________________________________________
flatten_2 (Flatten)             (None, 992)          0           average_pooling1d_2[0][0]        
__________________________________________________________________________________________________
flatten_3 (Flatten)             (None, 992)          0           average_pooling1d_4[0][0]        
__________________________________________________________________________________________________
flatten_4 (Flatten)             (None, 992)          0           average_pooling1d_6[0][0]        
__________________________________________________________________________________________________
flatten_5 (Flatten)             (None, 992)          0           average_pooling1d_8[0][0]        
__________________________________________________________________________________________________
flatten_6 (Flatten)             (None, 992)          0           average_pooling1d_10[0][0]       
__________________________________________________________________________________________________
flatten_7 (Flatten)             (None, 992)          0           average_pooling1d_12[0][0]       
__________________________________________________________________________________________________
dropout_1 (Dropout)             (None, 15, 20, 5, 8) 0           max_pooling3d_2[0][0]            
__________________________________________________________________________________________________
concatenate_1 (Concatenate)     (None, 5952)         0           flatten_2[0][0]                  
                                                                 flatten_3[0][0]                  
                                                                 flatten_4[0][0]                  
                                                                 flatten_5[0][0]                  
                                                                 flatten_6[0][0]                  
                                                                 flatten_7[0][0]                  
__________________________________________________________________________________________________
flatten_1 (Flatten)             (None, 12000)        0           dropout_1[0][0]                  
__________________________________________________________________________________________________
concatenate_2 (Concatenate)     (None, 17952)        0           concatenate_1[0][0]              
                                                                 flatten_1[0][0]                  
__________________________________________________________________________________________________
dense_1 (Dense)                 (None, 400)          7181200     concatenate_2[0][0]              
__________________________________________________________________________________________________
activation_15 (Activation)      (None, 400)          0           dense_1[0][0]                    
__________________________________________________________________________________________________
dropout_2 (Dropout)             (None, 400)          0           activation_15[0][0]              
__________________________________________________________________________________________________
dense_2 (Dense)                 (None, 1)            401         dropout_2[0][0]                  
__________________________________________________________________________________________________
activation_16 (Activation)      (None, 1)            0           dense_2[0][0]                    
==================================================================================================
Total params: 7,183,857
Trainable params: 7,183,857
Non-trainable params: 0
__________________________________________________________________________________________________
Epoch 1/1000

 1/94 [..............................] - ETA: 3:51:26 - loss: 20.2740 - acc: 0.0000e+00
…
